…
            "__________________________________________________________________________________________________\n",
            "Layer (type)                    Output Shape         Param #     Connected to                     \n",
            "==================================================================================================\n",
            "conv2d_input (InputLayer)       [(None, 64, 64, 3)]  0                                            \n",
            "__________________________________________________________________________________________________\n",
            "conv2d (Conv2D)                 (None, 64, 64, 64)   1792        conv2d_input[0][0]               \n",
            "__________________________________________________________________________________________________\n",
            "conv2d_1 (Conv2D)               (None, 64, 64, 64)   36928       conv2d[0][0]                     \n",
            "__________________________________________________________________________________________________\n",
            "max_pooling2d (MaxPooling2D)    (None, 32, 32, 64)   0           conv2d_1[0][0]                   \n",
            "__________________________________________________________________________________________________\n",
            "conv2d_2 (Conv2D)               (None, 32, 32, 128)  73856       max_pooling2d[0][0]              \n",
            "__________________________________________________________________________________________________\n",
            "conv2d_3 (Conv2D)               (None, 32, 32, 128)  147584      conv2d_2[0][0]                   \n",
            "__________________________________________________________________________________________________\n",
            "max_pooling2d_1 (MaxPooling2D)  (None, 16, 16, 128)  0           conv2d_3[0][0]                   \n",
            "__________________________________________________________________________________________________\n",
            "conv2d_4 (Conv2D)               (None, 16, 16, 256)  295168      max_pooling2d_1[0][0]            \n",
            "__________________________________________________________________________________________________\n",
            "conv2d_5 (Conv2D)               (None, 16, 16, 256)  590080      conv2d_4[0][0]                   \n",
            "__________________________________________________________________________________________________\n",
            "conv2d_6 (Conv2D)               (None, 16, 16, 256)  590080      conv2d_5[0][0]                   \n",
            "__________________________________________________________________________________________________\n",
            "max_pooling2d_2 (MaxPooling2D)  (None, 8, 8, 256)    0           conv2d_6[0][0]                   \n",
            "__________________________________________________________________________________________________\n",
            "conv2d_7 (Conv2D)               (None, 8, 8, 512)    1180160     max_pooling2d_2[0][0]            \n",
            "__________________________________________________________________________________________________\n",
            "conv2d_8 (Conv2D)               (None, 8, 8, 512)    2359808     conv2d_7[0][0]                   \n",
            "__________________________________________________________________________________________________\n",
            "conv2d_9 (Conv2D)               (None, 8, 8, 512)    2359808     conv2d_8[0][0]                   \n",
            "__________________________________________________________________________________________________\n",
            "max_pooling2d_3 (MaxPooling2D)  (None, 4, 4, 512)    0           conv2d_9[0][0]                   \n",
            "__________________________________________________________________________________________________\n",
            "dense_2_input (InputLayer)      [(None, 35)]         0                                            \n",
            "__________________________________________________________________________________________________\n",
            "conv2d_10 (Conv2D)              (None, 4, 4, 512)    2359808     max_pooling2d_3[0][0]            \n",
            "__________________________________________________________________________________________________\n",
            "dense_2 (Dense)                 (None, 32)           1152        dense_2_input[0][0]              \n",
            "__________________________________________________________________________________________________\n",
            "conv2d_11 (Conv2D)              (None, 4, 4, 512)    2359808     conv2d_10[0][0]                  \n",
            "__________________________________________________________________________________________________\n",
            "dropout_2 (Dropout)             (None, 32)           0           dense_2[0][0]                    \n",
            "__________________________________________________________________________________________________\n",
            "conv2d_12 (Conv2D)              (None, 4, 4, 512)    2359808     conv2d_11[0][0]                  \n",
            "__________________________________________________________________________________________________\n",
            "dense_3 (Dense)                 (None, 32)           1056        dropout_2[0][0]                  \n",
            "__________________________________________________________________________________________________\n",
            "max_pooling2d_4 (MaxPooling2D)  (None, 2, 2, 512)    0           conv2d_12[0][0]                  \n",
            "__________________________________________________________________________________________________\n",
            "dropout_3 (Dropout)             (None, 32)           0           dense_3[0][0]                    \n",
            "__________________________________________________________________________________________________\n",
            "sequential_1 (Sequential)       (None, 256)          197120      max_pooling2d_4[0][0]            \n",
            "__________________________________________________________________________________________________\n",
            "concatenate (Concatenate)       (None, 288)          0           dropout_3[0][0]                  \n",
            "                                                                 sequential_1[1][0]               \n",
            "__________________________________________________________________________________________________\n",
            "dense_4 (Dense)                 (None, 128)          36992       concatenate[0][0]                \n",
            "__________________________________________________________________________________________________\n",
            "dropout_4 (Dropout)             (None, 128)          0           dense_4[0][0]                    \n",
            "__________________________________________________________________________________________________\n",
            "dense_5 (Dense)                 (None, 2)            258         dropout_4[0][0]                  \n",
            "==================================================================================================\n",
            "Total params: 14,951,266\n",
            "Trainable params: 14,951,266\n",
            "Non-trainable params: 0\n",
            "__________________________________________________________________________________________________\n"
…
